…
I0517 22:47:32.116415  5604 net.cpp:313] The NetState phase (0) differed from the phase (1) specified by a rule in layer prob
I0517 22:47:32.116418  5604 net.cpp:313] The NetState phase (0) differed from the phase (1) specified by a rule in layer accuracy
I0517 22:47:32.116528  5604 net.cpp:49] Initializing net from parameters: 
name: "LeNet"
state {
  phase: TRAIN
}
layer {
  name: "mnist"
  type: "Data"
  top: "data"
  top: "label"
  include {
    phase: TRAIN
  }
  transform_param {
    scale: 0.00390625
  }
  data_param {
    source: "examples/mnist/mnist_train_lmdb"
    batch_size: 256
    backend: LMDB
  }
}
layer {
  name: "conv1"
  type: "Convolution"
  bottom: "data"
  top: "conv1"
  param {
    lr_mult: 1
  }
  param {
    lr_mult: 2
  }
  convolution_param {
    num_output: 20
    kernel_size: 5
    stride: 1
    weight_filler {
      type: "xavier"
    }
    bias_filler {
      type: "constant"
    }
  }
}
layer {
  name: "pool1"
  type: "Pooling"
  bottom: "conv1"
  top: "pool1"
  pooling_param {
    pool: MAX
    kernel_size: 2
    stride: 2
  }
}
layer {
  name: "conv2"
  type: "Convolution"
  bottom: "pool1"
  top: "conv2"
  param {
    lr_mult: 1
  }
  param {
    lr_mult: 2
  }
  convolution_param {
    num_output: 50
    kernel_size: 5
    stride: 1
    weight_filler {
      type: "xavier"
    }
    bias_filler {
      type: "constant"
    }
  }
}
layer {
  name: "pool2"
  type: "Pooling"
  bottom: "conv2"
  top: "pool2"
  pooling_param {
    pool: MAX
    kernel_size: 2
    stride: 2
  }
}
layer {
  name: "cluster_shortpath"
  type: "InnerProduct"
  bottom: "pool2"
  top: "cluster_shortpath"
  param {
    lr_mult: 1
  }
  param {
    lr_mult: 2
  }
  inner_product_param {
    num_output: 250
    weight_filler {
      type: "xavier"
    }
    bias_filler {
      type: "constant"
    }
  }
}
layer {
  name: "cluster_cluster"
  type: "Clustering"
  bottom: "pool2"
  bottom: "label"
  top: "cluster_cluster"
  include {
    phase: TRAIN
  }
  clustering_param {
    k: 5
    total_class: 10
    num_output: 250
    lambda: 0
    branch: true
    across_class: true
  }
}
layer {
  name: "cluster"
  type: "Concat"
  bottom: "cluster_cluster"
  bottom: "cluster_shortpath"
  top: "cluster"
}
layer {
  name: "dropout"
  type: "Dropout"
  bottom: "cluster"
  top: "cluster"
  dropout_param {
    dropout_ratio: 0.5
  }
}
layer {
  name: "relu1"
  type: "ReLU"
  bottom: "cluster"
  top: "ip1"
}
layer {
  name: "ip2"
  type: "InnerProduct"
  bottom: "ip1"
  top: "ip2"
  param {
    lr_mult: 1
  }
  param {
    lr_mult: 2
  }
  inner_product_param {
    num_output: 10
    weight_filler {
      type: "xavier"
    }
    bias_filler {
      type: "constant"
    }
  }
}
layer {
  name: "loss"
  type: "SoftmaxWithLoss"
  bottom: "ip2"
  bottom: "label"
  top: "loss"
}
I0517 22:47:32.116628  5604 layer_factory.hpp:77] Creating layer mnist
I0517 22:47:32.117182  5604 net.cpp:91] Creating Layer mnist
I0517 22:47:32.117198  5604 net.cpp:399] mnist -> data
I0517 22:47:32.117225  5604 net.cpp:399] mnist -> label
I0517 22:47:32.118705  5609 db_lmdb.cpp:38] Opened lmdb examples/mnist/mnist_train_lmdb
I0517 22:47:32.129518  5604 data_layer.cpp:41] output data size: 256,1,28,28
I0517 22:47:32.132210  5604 net.cpp:141] Setting up mnist
I0517 22:47:32.132237  5604 net.cpp:148] Top shape: 256 1 28 28 (200704)
I0517 22:47:32.132246  5604 net.cpp:148] Top shape: 256 (256)
I0517 22:47:32.132249  5604 net.cpp:156] Memory required for data: 803840
I0517 22:47:32.132261  5604 layer_factory.hpp:77] Creating layer label_mnist_1_split
I0517 22:47:32.132275  5604 net.cpp:91] Creating Layer label_mnist_1_split
I0517 22:47:32.132282  5604 net.cpp:425] label_mnist_1_split <- label
I0517 22:47:32.132300  5604 net.cpp:399] label_mnist_1_split -> label_mnist_1_split_0
I0517 22:47:32.132319  5604 net.cpp:399] label_mnist_1_split -> label_mnist_1_split_1
I0517 22:47:32.132372  5604 net.cpp:141] Setting up label_mnist_1_split
I0517 22:47:32.132388  5604 net.cpp:148] Top shape: 256 (256)
I0517 22:47:32.132396  5604 net.cpp:148] Top shape: 256 (256)
I0517 22:47:32.132400  5604 net.cpp:156] Memory required for data: 805888
I0517 22:47:32.132405  5604 layer_factory.hpp:77] Creating layer conv1
I0517 22:47:32.132423  5604 net.cpp:91] Creating Layer conv1
I0517 22:47:32.132428  5604 net.cpp:425] conv1 <- data
I0517 22:47:32.132436  5604 net.cpp:399] conv1 -> conv1
I0517 22:47:32.280061  5604 net.cpp:141] Setting up conv1
I0517 22:47:32.280095  5604 net.cpp:148] Top shape: 256 20 24 24 (2949120)
I0517 22:47:32.280102  5604 net.cpp:156] Memory required for data: 12602368
I0517 22:47:32.280122  5604 layer_factory.hpp:77] Creating layer pool1
I0517 22:47:32.280138  5604 net.cpp:91] Creating Layer pool1
I0517 22:47:32.280148  5604 net.cpp:425] pool1 <- conv1
I0517 22:47:32.280158  5604 net.cpp:399] pool1 -> pool1
I0517 22:47:32.280232  5604 net.cpp:141] Setting up pool1
I0517 22:47:32.280246  5604 net.cpp:148] Top shape: 256 20 12 12 (737280)
I0517 22:47:32.280251  5604 net.cpp:156] Memory required for data: 15551488
I0517 22:47:32.280254  5604 layer_factory.hpp:77] Creating layer conv2
I0517 22:47:32.280270  5604 net.cpp:91] Creating Layer conv2
I0517 22:47:32.280275  5604 net.cpp:425] conv2 <- pool1
I0517 22:47:32.280287  5604 net.cpp:399] conv2 -> conv2
I0517 22:47:32.281744  5604 net.cpp:141] Setting up conv2
I0517 22:47:32.281760  5604 net.cpp:148] Top shape: 256 50 8 8 (819200)
I0517 22:47:32.281765  5604 net.cpp:156] Memory required for data: 18828288
I0517 22:47:32.281775  5604 layer_factory.hpp:77] Creating layer pool2
I0517 22:47:32.281782  5604 net.cpp:91] Creating Layer pool2
I0517 22:47:32.281787  5604 net.cpp:425] pool2 <- conv2
I0517 22:47:32.281795  5604 net.cpp:399] pool2 -> pool2
I0517 22:47:32.281849  5604 net.cpp:141] Setting up pool2
I0517 22:47:32.281862  5604 net.cpp:148] Top shape: 256 50 4 4 (204800)
I0517 22:47:32.281865  5604 net.cpp:156] Memory required for data: 19647488
I0517 22:47:32.281870  5604 layer_factory.hpp:77] Creating layer pool2_pool2_0_split
I0517 22:47:32.281877  5604 net.cpp:91] Creating Layer pool2_pool2_0_split
I0517 22:47:32.281882  5604 net.cpp:425] pool2_pool2_0_split <- pool2
I0517 22:47:32.281888  5604 net.cpp:399] pool2_pool2_0_split -> pool2_pool2_0_split_0
I0517 22:47:32.281898  5604 net.cpp:399] pool2_pool2_0_split -> pool2_pool2_0_split_1
I0517 22:47:32.281950  5604 net.cpp:141] Setting up pool2_pool2_0_split
I0517 22:47:32.281961  5604 net.cpp:148] Top shape: 256 50 4 4 (204800)
I0517 22:47:32.281967  5604 net.cpp:148] Top shape: 256 50 4 4 (204800)
I0517 22:47:32.281971  5604 net.cpp:156] Memory required for data: 21285888
I0517 22:47:32.281975  5604 layer_factory.hpp:77] Creating layer cluster_shortpath
I0517 22:47:32.281991  5604 net.cpp:91] Creating Layer cluster_shortpath
I0517 22:47:32.281996  5604 net.cpp:425] cluster_shortpath <- pool2_pool2_0_split_0
I0517 22:47:32.282007  5604 net.cpp:399] cluster_shortpath -> cluster_shortpath
I0517 22:47:32.283618  5604 net.cpp:141] Setting up cluster_shortpath
I0517 22:47:32.283633  5604 net.cpp:148] Top shape: 256 250 (64000)
I0517 22:47:32.283638  5604 net.cpp:156] Memory required for data: 21541888
I0517 22:47:32.283648  5604 layer_factory.hpp:77] Creating layer cluster_cluster
I0517 22:47:32.283658  5604 net.cpp:91] Creating Layer cluster_cluster
I0517 22:47:32.283663  5604 net.cpp:425] cluster_cluster <- pool2_pool2_0_split_1
I0517 22:47:32.283673  5604 net.cpp:425] cluster_cluster <- label_mnist_1_split_0
I0517 22:47:32.283684  5604 net.cpp:399] cluster_cluster -> cluster_cluster
I0517 22:47:32.292007  5604 net.cpp:141] Setting up cluster_cluster
I0517 22:47:32.292042  5604 net.cpp:148] Top shape: 256 250 (64000)
I0517 22:47:32.292052  5604 net.cpp:156] Memory required for data: 21797888
I0517 22:47:32.292099  5604 layer_factory.hpp:77] Creating layer cluster
I0517 22:47:32.292126  5604 net.cpp:91] Creating Layer cluster
I0517 22:47:32.292141  5604 net.cpp:425] cluster <- cluster_cluster
I0517 22:47:32.292152  5604 net.cpp:425] cluster <- cluster_shortpath
I0517 22:47:32.292170  5604 net.cpp:399] cluster -> cluster
I0517 22:47:32.292213  5604 net.cpp:141] Setting up cluster
I0517 22:47:32.292228  5604 net.cpp:148] Top shape: 256 500 (128000)
I0517 22:47:32.292237  5604 net.cpp:156] Memory required for data: 22309888
I0517 22:47:32.292244  5604 layer_factory.hpp:77] Creating layer dropout
I0517 22:47:32.292256  5604 net.cpp:91] Creating Layer dropout
I0517 22:47:32.292265  5604 net.cpp:425] dropout <- cluster
I0517 22:47:32.292276  5604 net.cpp:386] dropout -> cluster (in-place)
I0517 22:47:32.292320  5604 net.cpp:141] Setting up dropout
I0517 22:47:32.292335  5604 net.cpp:148] Top shape: 256 500 (128000)
I0517 22:47:32.292343  5604 net.cpp:156] Memory required for data: 22821888
I0517 22:47:32.292352  5604 layer_factory.hpp:77] Creating layer relu1
I0517 22:47:32.292364  5604 net.cpp:91] Creating Layer relu1
I0517 22:47:32.292373  5604 net.cpp:425] relu1 <- cluster
I0517 22:47:32.292384  5604 net.cpp:399] relu1 -> ip1
I0517 22:47:32.292747  5604 net.cpp:141] Setting up relu1
I0517 22:47:32.292762  5604 net.cpp:148] Top shape: 256 500 (128000)
I0517 22:47:32.292768  5604 net.cpp:156] Memory required for data: 23333888
I0517 22:47:32.292771  5604 layer_factory.hpp:77] Creating layer ip2
I0517 22:47:32.292780  5604 net.cpp:91] Creating Layer ip2
I0517 22:47:32.292785  5604 net.cpp:425] ip2 <- ip1
I0517 22:47:32.292793  5604 net.cpp:399] ip2 -> ip2
I0517 22:47:32.293323  5604 net.cpp:141] Setting up ip2
I0517 22:47:32.293339  5604 net.cpp:148] Top shape: 256 10 (2560)
I0517 22:47:32.293344  5604 net.cpp:156] Memory required for data: 23344128
I0517 22:47:32.293350  5604 layer_factory.hpp:77] Creating layer loss
I0517 22:47:32.293365  5604 net.cpp:91] Creating Layer loss
I0517 22:47:32.293370  5604 net.cpp:425] loss <- ip2
I0517 22:47:32.293378  5604 net.cpp:425] loss <- label_mnist_1_split_1
I0517 22:47:32.293391  5604 net.cpp:399] loss -> loss
I0517 22:47:32.293409  5604 layer_factory.hpp:77] Creating layer loss
…
I0517 22:47:32.294667  5604 net.cpp:313] The NetState phase (1) differed from the phase (0) specified by a rule in layer mnist
I0517 22:47:32.294690  5604 net.cpp:313] The NetState phase (1) differed from the phase (0) specified by a rule in layer cluster_cluster
I0517 22:47:32.294796  5604 net.cpp:49] Initializing net from parameters: 
name: "LeNet"
state {
  phase: TEST
}
layer {
  name: "mnist"
  type: "Data"
  top: "data"
  top: "label"
  include {
    phase: TEST
  }
  transform_param {
    scale: 0.00390625
  }
  data_param {
    source: "examples/mnist/mnist_test_lmdb"
    batch_size: 100
    backend: LMDB
  }
}
layer {
  name: "conv1"
  type: "Convolution"
  bottom: "data"
  top: "conv1"
  param {
    lr_mult: 1
  }
  param {
    lr_mult: 2
  }
  convolution_param {
    num_output: 20
    kernel_size: 5
    stride: 1
    weight_filler {
      type: "xavier"
    }
    bias_filler {
      type: "constant"
    }
  }
}
layer {
  name: "pool1"
  type: "Pooling"
  bottom: "conv1"
  top: "pool1"
  pooling_param {
    pool: MAX
    kernel_size: 2
    stride: 2
  }
}
layer {
  name: "conv2"
  type: "Convolution"
  bottom: "pool1"
  top: "conv2"
  param {
    lr_mult: 1
  }
  param {
    lr_mult: 2
  }
  convolution_param {
    num_output: 50
    kernel_size: 5
    stride: 1
    weight_filler {
      type: "xavier"
    }
    bias_filler {
      type: "constant"
    }
  }
}
layer {
  name: "pool2"
  type: "Pooling"
  bottom: "conv2"
  top: "pool2"
  pooling_param {
    pool: MAX
    kernel_size: 2
    stride: 2
  }
}
layer {
  name: "cluster_shortpath"
  type: "InnerProduct"
  bottom: "pool2"
  top: "cluster_shortpath"
  param {
    lr_mult: 1
  }
  param {
    lr_mult: 2
  }
  inner_product_param {
    num_output: 250
    weight_filler {
      type: "xavier"
    }
    bias_filler {
      type: "constant"
    }
  }
}
layer {
  name: "cluster_cluster"
  type: "Clustering"
  bottom: "pool2"
  top: "cluster_cluster"
  include {
    phase: TEST
  }
  clustering_param {
    k: 5
    total_class: 10
    num_output: 250
    lambda: 0
    branch: true
    across_class: true
  }
}
layer {
  name: "cluster"
  type: "Concat"
  bottom: "cluster_cluster"
  bottom: "cluster_shortpath"
  top: "cluster"
}
layer {
  name: "dropout"
  type: "Dropout"
  bottom: "cluster"
  top: "cluster"
  dropout_param {
    dropout_ratio: 0.5
  }
}
layer {
  name: "relu1"
  type: "ReLU"
  bottom: "cluster"
  top: "ip1"
}
layer {
  name: "ip2"
  type: "InnerProduct"
  bottom: "ip1"
  top: "ip2"
  param {
    lr_mult: 1
  }
  param {
    lr_mult: 2
  }
  inner_product_param {
    num_output: 10
    weight_filler {
      type: "xavier"
    }
    bias_filler {
      type: "constant"
    }
  }
}
layer {
  name: "prob"
  type: "Softmax"
  bottom: "ip2"
  top: "prob"
  include {
    phase: TEST
  }
}
layer {
  name: "accuracy"
  type: "Accuracy"
  bottom: "prob"
  bottom: "label"
  top: "accuracy"
  include {
    phase: TEST
  }
}
layer {
  name: "loss"
  type: "SoftmaxWithLoss"
  bottom: "ip2"
  bottom: "label"
  top: "loss"
}
I0517 22:47:32.294872  5604 layer_factory.hpp:77] Creating layer mnist
I0517 22:47:32.296473  5604 net.cpp:91] Creating Layer mnist
I0517 22:47:32.296486  5604 net.cpp:399] mnist -> data
I0517 22:47:32.296497  5604 net.cpp:399] mnist -> label
I0517 22:47:32.297190  5611 db_lmdb.cpp:38] Opened lmdb examples/mnist/mnist_test_lmdb
I0517 22:47:32.297309  5604 data_layer.cpp:41] output data size: 100,1,28,28
I0517 22:47:32.298297  5604 net.cpp:141] Setting up mnist
I0517 22:47:32.298313  5604 net.cpp:148] Top shape: 100 1 28 28 (78400)
I0517 22:47:32.298319  5604 net.cpp:148] Top shape: 100 (100)
I0517 22:47:32.298323  5604 net.cpp:156] Memory required for data: 314000
I0517 22:47:32.298328  5604 layer_factory.hpp:77] Creating layer label_mnist_1_split
I0517 22:47:32.298336  5604 net.cpp:91] Creating Layer label_mnist_1_split
I0517 22:47:32.298341  5604 net.cpp:425] label_mnist_1_split <- label
I0517 22:47:32.298347  5604 net.cpp:399] label_mnist_1_split -> label_mnist_1_split_0
I0517 22:47:32.298357  5604 net.cpp:399] label_mnist_1_split -> label_mnist_1_split_1
I0517 22:47:32.298414  5604 net.cpp:141] Setting up label_mnist_1_split
I0517 22:47:32.298429  5604 net.cpp:148] Top shape: 100 (100)
I0517 22:47:32.298434  5604 net.cpp:148] Top shape: 100 (100)
I0517 22:47:32.298437  5604 net.cpp:156] Memory required for data: 314800
I0517 22:47:32.298442  5604 layer_factory.hpp:77] Creating layer conv1
I0517 22:47:32.298456  5604 net.cpp:91] Creating Layer conv1
I0517 22:47:32.298462  5604 net.cpp:425] conv1 <- data
I0517 22:47:32.298470  5604 net.cpp:399] conv1 -> conv1
I0517 22:47:32.299698  5604 net.cpp:141] Setting up conv1
I0517 22:47:32.299715  5604 net.cpp:148] Top shape: 100 20 24 24 (1152000)
I0517 22:47:32.299780  5604 net.cpp:156] Memory required for data: 4922800
I0517 22:47:32.299808  5604 layer_factory.hpp:77] Creating layer pool1
I0517 22:47:32.299830  5604 net.cpp:91] Creating Layer pool1
I0517 22:47:32.299844  5604 net.cpp:425] pool1 <- conv1
I0517 22:47:32.299865  5604 net.cpp:399] pool1 -> pool1
I0517 22:47:32.299928  5604 net.cpp:141] Setting up pool1
I0517 22:47:32.299942  5604 net.cpp:148] Top shape: 100 20 12 12 (288000)
I0517 22:47:32.299959  5604 net.cpp:156] Memory required for data: 6074800
I0517 22:47:32.299971  5604 layer_factory.hpp:77] Creating layer conv2
I0517 22:47:32.299993  5604 net.cpp:91] Creating Layer conv2
I0517 22:47:32.300004  5604 net.cpp:425] conv2 <- pool1
I0517 22:47:32.300024  5604 net.cpp:399] conv2 -> conv2
I0517 22:47:32.301347  5604 net.cpp:141] Setting up conv2
I0517 22:47:32.301367  5604 net.cpp:148] Top shape: 100 50 8 8 (320000)
I0517 22:47:32.301373  5604 net.cpp:156] Memory required for data: 7354800
I0517 22:47:32.301385  5604 layer_factory.hpp:77] Creating layer pool2
I0517 22:47:32.301400  5604 net.cpp:91] Creating Layer pool2
I0517 22:47:32.301411  5604 net.cpp:425] pool2 <- conv2
I0517 22:47:32.301430  5604 net.cpp:399] pool2 -> pool2
I0517 22:47:32.301492  5604 net.cpp:141] Setting up pool2
I0517 22:47:32.301506  5604 net.cpp:148] Top shape: 100 50 4 4 (80000)
I0517 22:47:32.301520  5604 net.cpp:156] Memory required for data: 7674800
I0517 22:47:32.301532  5604 layer_factory.hpp:77] Creating layer pool2_pool2_0_split
I0517 22:47:32.301547  5604 net.cpp:91] Creating Layer pool2_pool2_0_split
I0517 22:47:32.301558  5604 net.cpp:425] pool2_pool2_0_split <- pool2
I0517 22:47:32.301573  5604 net.cpp:399] pool2_pool2_0_split -> pool2_pool2_0_split_0
I0517 22:47:32.301590  5604 net.cpp:399] pool2_pool2_0_split -> pool2_pool2_0_split_1
I0517 22:47:32.301648  5604 net.cpp:141] Setting up pool2_pool2_0_split
I0517 22:47:32.301662  5604 net.cpp:148] Top shape: 100 50 4 4 (80000)
I0517 22:47:32.301681  5604 net.cpp:148] Top shape: 100 50 4 4 (80000)
I0517 22:47:32.301692  5604 net.cpp:156] Memory required for data: 8314800
I0517 22:47:32.301703  5604 layer_factory.hpp:77] Creating layer cluster_shortpath
I0517 22:47:32.301722  5604 net.cpp:91] Creating Layer cluster_shortpath
I0517 22:47:32.301738  5604 net.cpp:425] cluster_shortpath <- pool2_pool2_0_split_0
I0517 22:47:32.301753  5604 net.cpp:399] cluster_shortpath -> cluster_shortpath
I0517 22:47:32.303380  5604 net.cpp:141] Setting up cluster_shortpath
I0517 22:47:32.303395  5604 net.cpp:148] Top shape: 100 250 (25000)
I0517 22:47:32.303400  5604 net.cpp:156] Memory required for data: 8414800
I0517 22:47:32.303408  5604 layer_factory.hpp:77] Creating layer cluster_cluster
I0517 22:47:32.303418  5604 net.cpp:91] Creating Layer cluster_cluster
I0517 22:47:32.303422  5604 net.cpp:425] cluster_cluster <- pool2_pool2_0_split_1
I0517 22:47:32.303428  5604 net.cpp:399] cluster_cluster -> cluster_cluster
I0517 22:47:32.312255  5604 net.cpp:141] Setting up cluster_cluster
I0517 22:47:32.312285  5604 net.cpp:148] Top shape: 100 250 (25000)
I0517 22:47:32.312291  5604 net.cpp:156] Memory required for data: 8514800
I0517 22:47:32.312320  5604 layer_factory.hpp:77] Creating layer cluster
I0517 22:47:32.312336  5604 net.cpp:91] Creating Layer cluster
I0517 22:47:32.312347  5604 net.cpp:425] cluster <- cluster_cluster
I0517 22:47:32.312358  5604 net.cpp:425] cluster <- cluster_shortpath
I0517 22:47:32.312371  5604 net.cpp:399] cluster -> cluster
I0517 22:47:32.312403  5604 net.cpp:141] Setting up cluster
I0517 22:47:32.312413  5604 net.cpp:148] Top shape: 100 500 (50000)
I0517 22:47:32.312418  5604 net.cpp:156] Memory required for data: 8714800
I0517 22:47:32.312422  5604 layer_factory.hpp:77] Creating layer dropout
I0517 22:47:32.312432  5604 net.cpp:91] Creating Layer dropout
I0517 22:47:32.312436  5604 net.cpp:425] dropout <- cluster
I0517 22:47:32.312441  5604 net.cpp:386] dropout -> cluster (in-place)
I0517 22:47:32.312469  5604 net.cpp:141] Setting up dropout
I0517 22:47:32.312476  5604 net.cpp:148] Top shape: 100 500 (50000)
I0517 22:47:32.312481  5604 net.cpp:156] Memory required for data: 8914800
I0517 22:47:32.312484  5604 layer_factory.hpp:77] Creating layer relu1
I0517 22:47:32.312491  5604 net.cpp:91] Creating Layer relu1
I0517 22:47:32.312495  5604 net.cpp:425] relu1 <- cluster
I0517 22:47:32.312502  5604 net.cpp:399] relu1 -> ip1
I0517 22:47:32.312779  5604 net.cpp:141] Setting up relu1
I0517 22:47:32.312791  5604 net.cpp:148] Top shape: 100 500 (50000)
I0517 22:47:32.312796  5604 net.cpp:156] Memory required for data: 9114800
I0517 22:47:32.312800  5604 layer_factory.hpp:77] Creating layer ip2
I0517 22:47:32.312811  5604 net.cpp:91] Creating Layer ip2
I0517 22:47:32.312815  5604 net.cpp:425] ip2 <- ip1
I0517 22:47:32.312824  5604 net.cpp:399] ip2 -> ip2
I0517 22:47:32.312960  5604 net.cpp:141] Setting up ip2
I0517 22:47:32.312973  5604 net.cpp:148] Top shape: 100 10 (1000)
I0517 22:47:32.312978  5604 net.cpp:156] Memory required for data: 9118800
I0517 22:47:32.312984  5604 layer_factory.hpp:77] Creating layer ip2_ip2_0_split
I0517 22:47:32.312991  5604 net.cpp:91] Creating Layer ip2_ip2_0_split
I0517 22:47:32.312995  5604 net.cpp:425] ip2_ip2_0_split <- ip2
I0517 22:47:32.313000  5604 net.cpp:399] ip2_ip2_0_split -> ip2_ip2_0_split_0
I0517 22:47:32.313007  5604 net.cpp:399] ip2_ip2_0_split -> ip2_ip2_0_split_1
I0517 22:47:32.313048  5604 net.cpp:141] Setting up ip2_ip2_0_split
I0517 22:47:32.313058  5604 net.cpp:148] Top shape: 100 10 (1000)
I0517 22:47:32.313063  5604 net.cpp:148] Top shape: 100 10 (1000)
I0517 22:47:32.313067  5604 net.cpp:156] Memory required for data: 9126800
I0517 22:47:32.313072  5604 layer_factory.hpp:77] Creating layer prob
I0517 22:47:32.313081  5604 net.cpp:91] Creating Layer prob
I0517 22:47:32.313086  5604 net.cpp:425] prob <- ip2_ip2_0_split_0
I0517 22:47:32.313092  5604 net.cpp:399] prob -> prob
I0517 22:47:32.313423  5604 net.cpp:141] Setting up prob
I0517 22:47:32.313436  5604 net.cpp:148] Top shape: 100 10 (1000)
I0517 22:47:32.313441  5604 net.cpp:156] Memory required for data: 9130800
I0517 22:47:32.313446  5604 layer_factory.hpp:77] Creating layer accuracy
I0517 22:47:32.313452  5604 net.cpp:91] Creating Layer accuracy
I0517 22:47:32.313457  5604 net.cpp:425] accuracy <- prob
I0517 22:47:32.313462  5604 net.cpp:425] accuracy <- label_mnist_1_split_0
I0517 22:47:32.313469  5604 net.cpp:399] accuracy -> accuracy
…
