…
I0621 21:59:33.162873 18138 net.cpp:313] The NetState phase (0) differed from the phase (1) specified by a rule in layer prob
I0621 21:59:33.162876 18138 net.cpp:313] The NetState phase (0) differed from the phase (1) specified by a rule in layer accuracy
I0621 21:59:33.162987 18138 net.cpp:49] Initializing net from parameters: 
name: "LeNet"
state {
  phase: TRAIN
}
layer {
  name: "mnist"
  type: "Data"
  top: "data"
  top: "label"
  include {
    phase: TRAIN
  }
  transform_param {
    scale: 0.00390625
  }
  data_param {
    source: "examples/mnist/mnist_train_lmdb"
    batch_size: 256
    backend: LMDB
  }
}
layer {
  name: "conv1"
  type: "Convolution"
  bottom: "data"
  top: "conv1"
  param {
    lr_mult: 1
  }
  param {
    lr_mult: 2
  }
  convolution_param {
    num_output: 20
    kernel_size: 5
    stride: 1
    weight_filler {
      type: "xavier"
    }
    bias_filler {
      type: "constant"
    }
  }
}
layer {
  name: "pool1"
  type: "Pooling"
  bottom: "conv1"
  top: "pool1"
  pooling_param {
    pool: MAX
    kernel_size: 2
    stride: 2
  }
}
layer {
  name: "conv2"
  type: "Convolution"
  bottom: "pool1"
  top: "conv2"
  param {
    lr_mult: 1
  }
  param {
    lr_mult: 2
  }
  convolution_param {
    num_output: 50
    kernel_size: 5
    stride: 1
    weight_filler {
      type: "xavier"
    }
    bias_filler {
      type: "constant"
    }
  }
}
layer {
  name: "pool2"
  type: "Pooling"
  bottom: "conv2"
  top: "pool2"
  pooling_param {
    pool: MAX
    kernel_size: 2
    stride: 2
  }
}
layer {
  name: "cluster_shortpath"
  type: "InnerProduct"
  bottom: "pool2"
  top: "cluster_shortpath"
  param {
    lr_mult: 1
  }
  param {
    lr_mult: 2
  }
  inner_product_param {
    num_output: 250
    weight_filler {
      type: "xavier"
    }
    bias_filler {
      type: "constant"
    }
  }
}
layer {
  name: "cluster_cluster"
  type: "Clustering"
  bottom: "pool2"
  bottom: "label"
  top: "cluster_cluster"
  include {
    phase: TRAIN
  }
  clustering_param {
    k: 20
    total_class: 10
    num_output: 250
    lambda: 0.001
    branch: true
    across_class: true
    data_size: 20000
  }
}
layer {
  name: "cluster"
  type: "Concat"
  bottom: "cluster_cluster"
  bottom: "cluster_shortpath"
  top: "cluster"
}
layer {
  name: "dropout"
  type: "Dropout"
  bottom: "cluster"
  top: "cluster"
  dropout_param {
    dropout_ratio: 0.5
  }
}
layer {
  name: "relu1"
  type: "ReLU"
  bottom: "cluster"
  top: "cluster"
}
layer {
  name: "ip2"
  type: "InnerProduct"
  bottom: "cluster"
  top: "ip2"
  param {
    lr_mult: 1
  }
  param {
    lr_mult: 2
  }
  inner_product_param {
    num_output: 10
    weight_filler {
      type: "xavier"
    }
    bias_filler {
      type: "constant"
    }
  }
}
layer {
  name: "loss"
  type: "SoftmaxWithLoss"
  bottom: "ip2"
  bottom: "label"
  top: "loss"
}
I0621 21:59:33.163082 18138 layer_factory.hpp:77] Creating layer mnist
I0621 21:59:33.163616 18138 net.cpp:91] Creating Layer mnist
I0621 21:59:33.163632 18138 net.cpp:399] mnist -> data
I0621 21:59:33.163657 18138 net.cpp:399] mnist -> label
I0621 21:59:33.164364 18145 db_lmdb.cpp:38] Opened lmdb examples/mnist/mnist_train_lmdb
I0621 21:59:33.174134 18138 data_layer.cpp:41] output data size: 256,1,28,28
I0621 21:59:33.176326 18138 net.cpp:141] Setting up mnist
I0621 21:59:33.176352 18138 net.cpp:148] Top shape: 256 1 28 28 (200704)
I0621 21:59:33.176358 18138 net.cpp:148] Top shape: 256 (256)
I0621 21:59:33.176363 18138 net.cpp:156] Memory required for data: 803840
I0621 21:59:33.176375 18138 layer_factory.hpp:77] Creating layer label_mnist_1_split
I0621 21:59:33.176395 18138 net.cpp:91] Creating Layer label_mnist_1_split
I0621 21:59:33.176409 18138 net.cpp:425] label_mnist_1_split <- label
I0621 21:59:33.176429 18138 net.cpp:399] label_mnist_1_split -> label_mnist_1_split_0
I0621 21:59:33.176441 18138 net.cpp:399] label_mnist_1_split -> label_mnist_1_split_1
I0621 21:59:33.176491 18138 net.cpp:141] Setting up label_mnist_1_split
I0621 21:59:33.176502 18138 net.cpp:148] Top shape: 256 (256)
I0621 21:59:33.176508 18138 net.cpp:148] Top shape: 256 (256)
I0621 21:59:33.176512 18138 net.cpp:156] Memory required for data: 805888
I0621 21:59:33.176517 18138 layer_factory.hpp:77] Creating layer conv1
I0621 21:59:33.176537 18138 net.cpp:91] Creating Layer conv1
I0621 21:59:33.176542 18138 net.cpp:425] conv1 <- data
I0621 21:59:33.176594 18138 net.cpp:399] conv1 -> conv1
I0621 21:59:33.304103 18138 net.cpp:141] Setting up conv1
I0621 21:59:33.304141 18138 net.cpp:148] Top shape: 256 20 24 24 (2949120)
I0621 21:59:33.304147 18138 net.cpp:156] Memory required for data: 12602368
I0621 21:59:33.304167 18138 layer_factory.hpp:77] Creating layer pool1
I0621 21:59:33.304182 18138 net.cpp:91] Creating Layer pool1
I0621 21:59:33.304188 18138 net.cpp:425] pool1 <- conv1
I0621 21:59:33.304196 18138 net.cpp:399] pool1 -> pool1
I0621 21:59:33.304268 18138 net.cpp:141] Setting up pool1
I0621 21:59:33.304286 18138 net.cpp:148] Top shape: 256 20 12 12 (737280)
I0621 21:59:33.304293 18138 net.cpp:156] Memory required for data: 15551488
I0621 21:59:33.304301 18138 layer_factory.hpp:77] Creating layer conv2
I0621 21:59:33.304332 18138 net.cpp:91] Creating Layer conv2
I0621 21:59:33.304342 18138 net.cpp:425] conv2 <- pool1
I0621 21:59:33.304354 18138 net.cpp:399] conv2 -> conv2
I0621 21:59:33.305862 18138 net.cpp:141] Setting up conv2
I0621 21:59:33.305877 18138 net.cpp:148] Top shape: 256 50 8 8 (819200)
I0621 21:59:33.305882 18138 net.cpp:156] Memory required for data: 18828288
I0621 21:59:33.305894 18138 layer_factory.hpp:77] Creating layer pool2
I0621 21:59:33.305902 18138 net.cpp:91] Creating Layer pool2
I0621 21:59:33.305907 18138 net.cpp:425] pool2 <- conv2
I0621 21:59:33.305913 18138 net.cpp:399] pool2 -> pool2
I0621 21:59:33.305966 18138 net.cpp:141] Setting up pool2
I0621 21:59:33.305980 18138 net.cpp:148] Top shape: 256 50 4 4 (204800)
I0621 21:59:33.305984 18138 net.cpp:156] Memory required for data: 19647488
I0621 21:59:33.305989 18138 layer_factory.hpp:77] Creating layer pool2_pool2_0_split
I0621 21:59:33.305995 18138 net.cpp:91] Creating Layer pool2_pool2_0_split
I0621 21:59:33.306000 18138 net.cpp:425] pool2_pool2_0_split <- pool2
I0621 21:59:33.306007 18138 net.cpp:399] pool2_pool2_0_split -> pool2_pool2_0_split_0
I0621 21:59:33.306015 18138 net.cpp:399] pool2_pool2_0_split -> pool2_pool2_0_split_1
I0621 21:59:33.306067 18138 net.cpp:141] Setting up pool2_pool2_0_split
I0621 21:59:33.306080 18138 net.cpp:148] Top shape: 256 50 4 4 (204800)
I0621 21:59:33.306085 18138 net.cpp:148] Top shape: 256 50 4 4 (204800)
I0621 21:59:33.306089 18138 net.cpp:156] Memory required for data: 21285888
I0621 21:59:33.306094 18138 layer_factory.hpp:77] Creating layer cluster_shortpath
I0621 21:59:33.306107 18138 net.cpp:91] Creating Layer cluster_shortpath
I0621 21:59:33.306113 18138 net.cpp:425] cluster_shortpath <- pool2_pool2_0_split_0
I0621 21:59:33.306120 18138 net.cpp:399] cluster_shortpath -> cluster_shortpath
I0621 21:59:33.307713 18138 net.cpp:141] Setting up cluster_shortpath
I0621 21:59:33.307728 18138 net.cpp:148] Top shape: 256 250 (64000)
I0621 21:59:33.307732 18138 net.cpp:156] Memory required for data: 21541888
I0621 21:59:33.307741 18138 layer_factory.hpp:77] Creating layer cluster_cluster
I0621 21:59:33.307754 18138 net.cpp:91] Creating Layer cluster_cluster
I0621 21:59:33.307759 18138 net.cpp:425] cluster_cluster <- pool2_pool2_0_split_1
I0621 21:59:33.307765 18138 net.cpp:425] cluster_cluster <- label_mnist_1_split_0
I0621 21:59:33.307770 18138 net.cpp:399] cluster_cluster -> cluster_cluster
I0621 21:59:33.352013 18138 net.cpp:141] Setting up cluster_cluster
I0621 21:59:33.352049 18138 net.cpp:148] Top shape: 256 250 (64000)
I0621 21:59:33.352054 18138 net.cpp:156] Memory required for data: 21797888
I0621 21:59:33.352183 18138 layer_factory.hpp:77] Creating layer cluster
I0621 21:59:33.352203 18138 net.cpp:91] Creating Layer cluster
I0621 21:59:33.352211 18138 net.cpp:425] cluster <- cluster_cluster
I0621 21:59:33.352217 18138 net.cpp:425] cluster <- cluster_shortpath
I0621 21:59:33.352224 18138 net.cpp:399] cluster -> cluster
I0621 21:59:33.352262 18138 net.cpp:141] Setting up cluster
I0621 21:59:33.352277 18138 net.cpp:148] Top shape: 256 500 (128000)
I0621 21:59:33.352284 18138 net.cpp:156] Memory required for data: 22309888
I0621 21:59:33.352289 18138 layer_factory.hpp:77] Creating layer dropout
I0621 21:59:33.352298 18138 net.cpp:91] Creating Layer dropout
I0621 21:59:33.352303 18138 net.cpp:425] dropout <- cluster
I0621 21:59:33.352309 18138 net.cpp:386] dropout -> cluster (in-place)
I0621 21:59:33.352352 18138 net.cpp:141] Setting up dropout
I0621 21:59:33.352367 18138 net.cpp:148] Top shape: 256 500 (128000)
I0621 21:59:33.352375 18138 net.cpp:156] Memory required for data: 22821888
I0621 21:59:33.352381 18138 layer_factory.hpp:77] Creating layer relu1
I0621 21:59:33.352388 18138 net.cpp:91] Creating Layer relu1
I0621 21:59:33.352392 18138 net.cpp:425] relu1 <- cluster
I0621 21:59:33.352399 18138 net.cpp:386] relu1 -> cluster (in-place)
I0621 21:59:33.352746 18138 net.cpp:141] Setting up relu1
I0621 21:59:33.352759 18138 net.cpp:148] Top shape: 256 500 (128000)
I0621 21:59:33.352764 18138 net.cpp:156] Memory required for data: 23333888
I0621 21:59:33.352769 18138 layer_factory.hpp:77] Creating layer ip2
I0621 21:59:33.352778 18138 net.cpp:91] Creating Layer ip2
I0621 21:59:33.352783 18138 net.cpp:425] ip2 <- cluster
I0621 21:59:33.352789 18138 net.cpp:399] ip2 -> ip2
I0621 21:59:33.353299 18138 net.cpp:141] Setting up ip2
I0621 21:59:33.353312 18138 net.cpp:148] Top shape: 256 10 (2560)
I0621 21:59:33.353317 18138 net.cpp:156] Memory required for data: 23344128
I0621 21:59:33.353324 18138 layer_factory.hpp:77] Creating layer loss
I0621 21:59:33.353332 18138 net.cpp:91] Creating Layer loss
I0621 21:59:33.353337 18138 net.cpp:425] loss <- ip2
I0621 21:59:33.353343 18138 net.cpp:425] loss <- label_mnist_1_split_1
I0621 21:59:33.353350 18138 net.cpp:399] loss -> loss
I0621 21:59:33.353366 18138 layer_factory.hpp:77] Creating layer loss
…
I0621 21:59:33.354579 18138 net.cpp:313] The NetState phase (1) differed from the phase (0) specified by a rule in layer mnist
I0621 21:59:33.354591 18138 net.cpp:313] The NetState phase (1) differed from the phase (0) specified by a rule in layer cluster_cluster
I0621 21:59:33.354703 18138 net.cpp:49] Initializing net from parameters: 
name: "LeNet"
state {
  phase: TEST
}
layer {
  name: "mnist"
  type: "Data"
  top: "data"
  top: "label"
  include {
    phase: TEST
  }
  transform_param {
    scale: 0.00390625
  }
  data_param {
    source: "examples/mnist/mnist_test_lmdb"
    batch_size: 100
    backend: LMDB
  }
}
layer {
  name: "conv1"
  type: "Convolution"
  bottom: "data"
  top: "conv1"
  param {
    lr_mult: 1
  }
  param {
    lr_mult: 2
  }
  convolution_param {
    num_output: 20
    kernel_size: 5
    stride: 1
    weight_filler {
      type: "xavier"
    }
    bias_filler {
      type: "constant"
    }
  }
}
layer {
  name: "pool1"
  type: "Pooling"
  bottom: "conv1"
  top: "pool1"
  pooling_param {
    pool: MAX
    kernel_size: 2
    stride: 2
  }
}
layer {
  name: "conv2"
  type: "Convolution"
  bottom: "pool1"
  top: "conv2"
  param {
    lr_mult: 1
  }
  param {
    lr_mult: 2
  }
  convolution_param {
    num_output: 50
    kernel_size: 5
    stride: 1
    weight_filler {
      type: "xavier"
    }
    bias_filler {
      type: "constant"
    }
  }
}
layer {
  name: "pool2"
  type: "Pooling"
  bottom: "conv2"
  top: "pool2"
  pooling_param {
    pool: MAX
    kernel_size: 2
    stride: 2
  }
}
layer {
  name: "cluster_shortpath"
  type: "InnerProduct"
  bottom: "pool2"
  top: "cluster_shortpath"
  param {
    lr_mult: 1
  }
  param {
    lr_mult: 2
  }
  inner_product_param {
    num_output: 250
    weight_filler {
      type: "xavier"
    }
    bias_filler {
      type: "constant"
    }
  }
}
layer {
  name: "cluster_cluster"
  type: "Clustering"
  bottom: "pool2"
  top: "cluster_cluster"
  include {
    phase: TEST
  }
  clustering_param {
    k: 20
    total_class: 10
    num_output: 250
    lambda: 0.001
    branch: true
    across_class: true
    data_size: 20000
  }
}
layer {
  name: "cluster"
  type: "Concat"
  bottom: "cluster_cluster"
  bottom: "cluster_shortpath"
  top: "cluster"
}
layer {
  name: "dropout"
  type: "Dropout"
  bottom: "cluster"
  top: "cluster"
  dropout_param {
    dropout_ratio: 0.5
  }
}
layer {
  name: "relu1"
  type: "ReLU"
  bottom: "cluster"
  top: "cluster"
}
layer {
  name: "ip2"
  type: "InnerProduct"
  bottom: "cluster"
  top: "ip2"
  param {
    lr_mult: 1
  }
  param {
    lr_mult: 2
  }
  inner_product_param {
    num_output: 10
    weight_filler {
      type: "xavier"
    }
    bias_filler {
      type: "constant"
    }
  }
}
layer {
  name: "prob"
  type: "Softmax"
  bottom: "ip2"
  top: "prob"
  include {
    phase: TEST
  }
}
layer {
  name: "accuracy"
  type: "Accuracy"
  bottom: "prob"
  bottom: "label"
  top: "accuracy"
  include {
    phase: TEST
  }
}
layer {
  name: "loss"
  type: "SoftmaxWithLoss"
  bottom: "ip2"
  bottom: "label"
  top: "loss"
}
I0621 21:59:33.354787 18138 layer_factory.hpp:77] Creating layer mnist
I0621 21:59:33.354920 18138 net.cpp:91] Creating Layer mnist
I0621 21:59:33.354933 18138 net.cpp:399] mnist -> data
I0621 21:59:33.354943 18138 net.cpp:399] mnist -> label
I0621 21:59:33.355638 18147 db_lmdb.cpp:38] Opened lmdb examples/mnist/mnist_test_lmdb
I0621 21:59:33.355761 18138 data_layer.cpp:41] output data size: 100,1,28,28
I0621 21:59:33.356736 18138 net.cpp:141] Setting up mnist
I0621 21:59:33.356751 18138 net.cpp:148] Top shape: 100 1 28 28 (78400)
I0621 21:59:33.356757 18138 net.cpp:148] Top shape: 100 (100)
I0621 21:59:33.356761 18138 net.cpp:156] Memory required for data: 314000
I0621 21:59:33.356766 18138 layer_factory.hpp:77] Creating layer label_mnist_1_split
I0621 21:59:33.356776 18138 net.cpp:91] Creating Layer label_mnist_1_split
I0621 21:59:33.356782 18138 net.cpp:425] label_mnist_1_split <- label
I0621 21:59:33.356792 18138 net.cpp:399] label_mnist_1_split -> label_mnist_1_split_0
I0621 21:59:33.356806 18138 net.cpp:399] label_mnist_1_split -> label_mnist_1_split_1
I0621 21:59:33.356873 18138 net.cpp:141] Setting up label_mnist_1_split
I0621 21:59:33.356884 18138 net.cpp:148] Top shape: 100 (100)
I0621 21:59:33.356889 18138 net.cpp:148] Top shape: 100 (100)
I0621 21:59:33.356894 18138 net.cpp:156] Memory required for data: 314800
I0621 21:59:33.356905 18138 layer_factory.hpp:77] Creating layer conv1
I0621 21:59:33.356923 18138 net.cpp:91] Creating Layer conv1
I0621 21:59:33.356932 18138 net.cpp:425] conv1 <- data
I0621 21:59:33.356941 18138 net.cpp:399] conv1 -> conv1
I0621 21:59:33.358149 18138 net.cpp:141] Setting up conv1
I0621 21:59:33.358165 18138 net.cpp:148] Top shape: 100 20 24 24 (1152000)
I0621 21:59:33.358171 18138 net.cpp:156] Memory required for data: 4922800
I0621 21:59:33.358183 18138 layer_factory.hpp:77] Creating layer pool1
I0621 21:59:33.358198 18138 net.cpp:91] Creating Layer pool1
I0621 21:59:33.358211 18138 net.cpp:425] pool1 <- conv1
I0621 21:59:33.358225 18138 net.cpp:399] pool1 -> pool1
I0621 21:59:33.358289 18138 net.cpp:141] Setting up pool1
I0621 21:59:33.358301 18138 net.cpp:148] Top shape: 100 20 12 12 (288000)
I0621 21:59:33.358310 18138 net.cpp:156] Memory required for data: 6074800
I0621 21:59:33.358321 18138 layer_factory.hpp:77] Creating layer conv2
I0621 21:59:33.358342 18138 net.cpp:91] Creating Layer conv2
I0621 21:59:33.358355 18138 net.cpp:425] conv2 <- pool1
I0621 21:59:33.358382 18138 net.cpp:399] conv2 -> conv2
I0621 21:59:33.359650 18138 net.cpp:141] Setting up conv2
I0621 21:59:33.359666 18138 net.cpp:148] Top shape: 100 50 8 8 (320000)
I0621 21:59:33.359675 18138 net.cpp:156] Memory required for data: 7354800
I0621 21:59:33.359695 18138 layer_factory.hpp:77] Creating layer pool2
I0621 21:59:33.359711 18138 net.cpp:91] Creating Layer pool2
I0621 21:59:33.359737 18138 net.cpp:425] pool2 <- conv2
I0621 21:59:33.359757 18138 net.cpp:399] pool2 -> pool2
I0621 21:59:33.359822 18138 net.cpp:141] Setting up pool2
I0621 21:59:33.359835 18138 net.cpp:148] Top shape: 100 50 4 4 (80000)
I0621 21:59:33.359843 18138 net.cpp:156] Memory required for data: 7674800
I0621 21:59:33.359853 18138 layer_factory.hpp:77] Creating layer pool2_pool2_0_split
I0621 21:59:33.359874 18138 net.cpp:91] Creating Layer pool2_pool2_0_split
I0621 21:59:33.359885 18138 net.cpp:425] pool2_pool2_0_split <- pool2
I0621 21:59:33.359899 18138 net.cpp:399] pool2_pool2_0_split -> pool2_pool2_0_split_0
I0621 21:59:33.359922 18138 net.cpp:399] pool2_pool2_0_split -> pool2_pool2_0_split_1
I0621 21:59:33.359982 18138 net.cpp:141] Setting up pool2_pool2_0_split
I0621 21:59:33.359999 18138 net.cpp:148] Top shape: 100 50 4 4 (80000)
I0621 21:59:33.360008 18138 net.cpp:148] Top shape: 100 50 4 4 (80000)
I0621 21:59:33.360024 18138 net.cpp:156] Memory required for data: 8314800
I0621 21:59:33.360034 18138 layer_factory.hpp:77] Creating layer cluster_shortpath
I0621 21:59:33.360049 18138 net.cpp:91] Creating Layer cluster_shortpath
I0621 21:59:33.360066 18138 net.cpp:425] cluster_shortpath <- pool2_pool2_0_split_0
I0621 21:59:33.360085 18138 net.cpp:399] cluster_shortpath -> cluster_shortpath
I0621 21:59:33.361768 18138 net.cpp:141] Setting up cluster_shortpath
I0621 21:59:33.361783 18138 net.cpp:148] Top shape: 100 250 (25000)
I0621 21:59:33.361788 18138 net.cpp:156] Memory required for data: 8414800
I0621 21:59:33.361802 18138 layer_factory.hpp:77] Creating layer cluster_cluster
I0621 21:59:33.361819 18138 net.cpp:91] Creating Layer cluster_cluster
I0621 21:59:33.361829 18138 net.cpp:425] cluster_cluster <- pool2_pool2_0_split_1
I0621 21:59:33.361845 18138 net.cpp:399] cluster_cluster -> cluster_cluster
I0621 21:59:33.407218 18138 net.cpp:141] Setting up cluster_cluster
I0621 21:59:33.407253 18138 net.cpp:148] Top shape: 100 250 (25000)
I0621 21:59:33.407258 18138 net.cpp:156] Memory required for data: 8514800
I0621 21:59:33.407390 18138 layer_factory.hpp:77] Creating layer cluster
I0621 21:59:33.407412 18138 net.cpp:91] Creating Layer cluster
I0621 21:59:33.407423 18138 net.cpp:425] cluster <- cluster_cluster
I0621 21:59:33.407430 18138 net.cpp:425] cluster <- cluster_shortpath
I0621 21:59:33.407438 18138 net.cpp:399] cluster -> cluster
I0621 21:59:33.407480 18138 net.cpp:141] Setting up cluster
I0621 21:59:33.407495 18138 net.cpp:148] Top shape: 100 500 (50000)
I0621 21:59:33.407501 18138 net.cpp:156] Memory required for data: 8714800
I0621 21:59:33.407505 18138 layer_factory.hpp:77] Creating layer dropout
I0621 21:59:33.407513 18138 net.cpp:91] Creating Layer dropout
I0621 21:59:33.407517 18138 net.cpp:425] dropout <- cluster
I0621 21:59:33.407524 18138 net.cpp:386] dropout -> cluster (in-place)
I0621 21:59:33.407560 18138 net.cpp:141] Setting up dropout
I0621 21:59:33.407578 18138 net.cpp:148] Top shape: 100 500 (50000)
I0621 21:59:33.407588 18138 net.cpp:156] Memory required for data: 8914800
I0621 21:59:33.407595 18138 layer_factory.hpp:77] Creating layer relu1
I0621 21:59:33.407609 18138 net.cpp:91] Creating Layer relu1
I0621 21:59:33.407619 18138 net.cpp:425] relu1 <- cluster
I0621 21:59:33.407629 18138 net.cpp:386] relu1 -> cluster (in-place)
I0621 21:59:33.407860 18138 net.cpp:141] Setting up relu1
I0621 21:59:33.407873 18138 net.cpp:148] Top shape: 100 500 (50000)
I0621 21:59:33.407877 18138 net.cpp:156] Memory required for data: 9114800
I0621 21:59:33.407882 18138 layer_factory.hpp:77] Creating layer ip2
I0621 21:59:33.407892 18138 net.cpp:91] Creating Layer ip2
I0621 21:59:33.407896 18138 net.cpp:425] ip2 <- cluster
I0621 21:59:33.407904 18138 net.cpp:399] ip2 -> ip2
I0621 21:59:33.408080 18138 net.cpp:141] Setting up ip2
I0621 21:59:33.408092 18138 net.cpp:148] Top shape: 100 10 (1000)
I0621 21:59:33.408097 18138 net.cpp:156] Memory required for data: 9118800
I0621 21:59:33.408103 18138 layer_factory.hpp:77] Creating layer ip2_ip2_0_split
I0621 21:59:33.408110 18138 net.cpp:91] Creating Layer ip2_ip2_0_split
I0621 21:59:33.408114 18138 net.cpp:425] ip2_ip2_0_split <- ip2
I0621 21:59:33.408120 18138 net.cpp:399] ip2_ip2_0_split -> ip2_ip2_0_split_0
I0621 21:59:33.408129 18138 net.cpp:399] ip2_ip2_0_split -> ip2_ip2_0_split_1
I0621 21:59:33.408190 18138 net.cpp:141] Setting up ip2_ip2_0_split
I0621 21:59:33.408200 18138 net.cpp:148] Top shape: 100 10 (1000)
I0621 21:59:33.408206 18138 net.cpp:148] Top shape: 100 10 (1000)
I0621 21:59:33.408210 18138 net.cpp:156] Memory required for data: 9126800
I0621 21:59:33.408215 18138 layer_factory.hpp:77] Creating layer prob
I0621 21:59:33.408224 18138 net.cpp:91] Creating Layer prob
I0621 21:59:33.408229 18138 net.cpp:425] prob <- ip2_ip2_0_split_0
I0621 21:59:33.408236 18138 net.cpp:399] prob -> prob
I0621 21:59:33.408622 18138 net.cpp:141] Setting up prob
I0621 21:59:33.408637 18138 net.cpp:148] Top shape: 100 10 (1000)
I0621 21:59:33.408641 18138 net.cpp:156] Memory required for data: 9130800
I0621 21:59:33.408645 18138 layer_factory.hpp:77] Creating layer accuracy
I0621 21:59:33.408654 18138 net.cpp:91] Creating Layer accuracy
I0621 21:59:33.408659 18138 net.cpp:425] accuracy <- prob
I0621 21:59:33.408665 18138 net.cpp:425] accuracy <- label_mnist_1_split_0
I0621 21:59:33.408670 18138 net.cpp:399] accuracy -> accuracy
…
