…
I0518 22:42:20.429349  8009 net.cpp:313] The NetState phase (0) differed from the phase (1) specified by a rule in layer prob
I0518 22:42:20.429357  8009 net.cpp:313] The NetState phase (0) differed from the phase (1) specified by a rule in layer accuracy
I0518 22:42:20.429486  8009 net.cpp:49] Initializing net from parameters: 
name: "LeNet"
state {
  phase: TRAIN
}
layer {
  name: "mnist"
  type: "Data"
  top: "data"
  top: "label"
  include {
    phase: TRAIN
  }
  transform_param {
    scale: 0.00390625
  }
  data_param {
    source: "examples/mnist/mnist_train_lmdb"
    batch_size: 256
    backend: LMDB
  }
}
layer {
  name: "conv1"
  type: "Convolution"
  bottom: "data"
  top: "conv1"
  param {
    lr_mult: 1
  }
  param {
    lr_mult: 2
  }
  convolution_param {
    num_output: 20
    kernel_size: 5
    stride: 1
    weight_filler {
      type: "xavier"
    }
    bias_filler {
      type: "constant"
    }
  }
}
layer {
  name: "pool1"
  type: "Pooling"
  bottom: "conv1"
  top: "pool1"
  pooling_param {
    pool: MAX
    kernel_size: 2
    stride: 2
  }
}
layer {
  name: "conv2"
  type: "Convolution"
  bottom: "pool1"
  top: "conv2"
  param {
    lr_mult: 1
  }
  param {
    lr_mult: 2
  }
  convolution_param {
    num_output: 50
    kernel_size: 5
    stride: 1
    weight_filler {
      type: "xavier"
    }
    bias_filler {
      type: "constant"
    }
  }
}
layer {
  name: "pool2"
  type: "Pooling"
  bottom: "conv2"
  top: "pool2"
  pooling_param {
    pool: MAX
    kernel_size: 2
    stride: 2
  }
}
layer {
  name: "cluster_shortpath"
  type: "InnerProduct"
  bottom: "pool2"
  top: "cluster_shortpath"
  param {
    lr_mult: 1
  }
  param {
    lr_mult: 2
  }
  inner_product_param {
    num_output: 250
    weight_filler {
      type: "xavier"
    }
    bias_filler {
      type: "constant"
    }
  }
}
layer {
  name: "cluster_cluster"
  type: "Clustering"
  bottom: "pool2"
  bottom: "label"
  top: "cluster_cluster"
  include {
    phase: TRAIN
  }
  clustering_param {
    k: 3
    total_class: 10
    num_output: 250
    lambda: 0.001
    branch: true
    across_class: true
    data_size: 10000
  }
}
layer {
  name: "cluster"
  type: "Concat"
  bottom: "cluster_cluster"
  bottom: "cluster_shortpath"
  top: "cluster"
}
layer {
  name: "dropout"
  type: "Dropout"
  bottom: "cluster"
  top: "cluster"
  dropout_param {
    dropout_ratio: 0.5
  }
}
layer {
  name: "relu1"
  type: "ReLU"
  bottom: "cluster"
  top: "cluster"
}
layer {
  name: "ip2"
  type: "InnerProduct"
  bottom: "cluster"
  top: "ip2"
  param {
    lr_mult: 1
  }
  param {
    lr_mult: 2
  }
  inner_product_param {
    num_output: 10
    weight_filler {
      type: "xavier"
    }
    bias_filler {
      type: "constant"
    }
  }
}
layer {
  name: "loss"
  type: "SoftmaxWithLoss"
  bottom: "ip2"
  bottom: "label"
  top: "loss"
}
I0518 22:42:20.429616  8009 layer_factory.hpp:77] Creating layer mnist
I0518 22:42:20.430421  8009 net.cpp:91] Creating Layer mnist
I0518 22:42:20.430440  8009 net.cpp:399] mnist -> data
I0518 22:42:20.430470  8009 net.cpp:399] mnist -> label
I0518 22:42:20.431169  8014 db_lmdb.cpp:38] Opened lmdb examples/mnist/mnist_train_lmdb
I0518 22:42:20.445199  8009 data_layer.cpp:41] output data size: 256,1,28,28
I0518 22:42:20.447999  8009 net.cpp:141] Setting up mnist
I0518 22:42:20.448029  8009 net.cpp:148] Top shape: 256 1 28 28 (200704)
I0518 22:42:20.448040  8009 net.cpp:148] Top shape: 256 (256)
I0518 22:42:20.448046  8009 net.cpp:156] Memory required for data: 803840
I0518 22:42:20.448063  8009 layer_factory.hpp:77] Creating layer label_mnist_1_split
I0518 22:42:20.448081  8009 net.cpp:91] Creating Layer label_mnist_1_split
I0518 22:42:20.448091  8009 net.cpp:425] label_mnist_1_split <- label
I0518 22:42:20.448109  8009 net.cpp:399] label_mnist_1_split -> label_mnist_1_split_0
I0518 22:42:20.448124  8009 net.cpp:399] label_mnist_1_split -> label_mnist_1_split_1
I0518 22:42:20.448168  8009 net.cpp:141] Setting up label_mnist_1_split
I0518 22:42:20.448181  8009 net.cpp:148] Top shape: 256 (256)
I0518 22:42:20.448189  8009 net.cpp:148] Top shape: 256 (256)
I0518 22:42:20.448195  8009 net.cpp:156] Memory required for data: 805888
I0518 22:42:20.448202  8009 layer_factory.hpp:77] Creating layer conv1
I0518 22:42:20.448226  8009 net.cpp:91] Creating Layer conv1
I0518 22:42:20.448233  8009 net.cpp:425] conv1 <- data
I0518 22:42:20.448246  8009 net.cpp:399] conv1 -> conv1
I0518 22:42:20.662569  8009 net.cpp:141] Setting up conv1
I0518 22:42:20.662607  8009 net.cpp:148] Top shape: 256 20 24 24 (2949120)
I0518 22:42:20.662616  8009 net.cpp:156] Memory required for data: 12602368
I0518 22:42:20.662647  8009 layer_factory.hpp:77] Creating layer pool1
I0518 22:42:20.662667  8009 net.cpp:91] Creating Layer pool1
I0518 22:42:20.662675  8009 net.cpp:425] pool1 <- conv1
I0518 22:42:20.662686  8009 net.cpp:399] pool1 -> pool1
I0518 22:42:20.662757  8009 net.cpp:141] Setting up pool1
I0518 22:42:20.662771  8009 net.cpp:148] Top shape: 256 20 12 12 (737280)
I0518 22:42:20.662778  8009 net.cpp:156] Memory required for data: 15551488
I0518 22:42:20.662786  8009 layer_factory.hpp:77] Creating layer conv2
I0518 22:42:20.662806  8009 net.cpp:91] Creating Layer conv2
I0518 22:42:20.662812  8009 net.cpp:425] conv2 <- pool1
I0518 22:42:20.662822  8009 net.cpp:399] conv2 -> conv2
I0518 22:42:20.664772  8009 net.cpp:141] Setting up conv2
I0518 22:42:20.664789  8009 net.cpp:148] Top shape: 256 50 8 8 (819200)
I0518 22:42:20.664796  8009 net.cpp:156] Memory required for data: 18828288
I0518 22:42:20.664810  8009 layer_factory.hpp:77] Creating layer pool2
I0518 22:42:20.664821  8009 net.cpp:91] Creating Layer pool2
I0518 22:42:20.664829  8009 net.cpp:425] pool2 <- conv2
I0518 22:42:20.664839  8009 net.cpp:399] pool2 -> pool2
I0518 22:42:20.664886  8009 net.cpp:141] Setting up pool2
I0518 22:42:20.664899  8009 net.cpp:148] Top shape: 256 50 4 4 (204800)
I0518 22:42:20.664906  8009 net.cpp:156] Memory required for data: 19647488
I0518 22:42:20.664912  8009 layer_factory.hpp:77] Creating layer pool2_pool2_0_split
I0518 22:42:20.664922  8009 net.cpp:91] Creating Layer pool2_pool2_0_split
I0518 22:42:20.664929  8009 net.cpp:425] pool2_pool2_0_split <- pool2
I0518 22:42:20.664938  8009 net.cpp:399] pool2_pool2_0_split -> pool2_pool2_0_split_0
I0518 22:42:20.664949  8009 net.cpp:399] pool2_pool2_0_split -> pool2_pool2_0_split_1
I0518 22:42:20.664991  8009 net.cpp:141] Setting up pool2_pool2_0_split
I0518 22:42:20.665004  8009 net.cpp:148] Top shape: 256 50 4 4 (204800)
I0518 22:42:20.665012  8009 net.cpp:148] Top shape: 256 50 4 4 (204800)
I0518 22:42:20.665019  8009 net.cpp:156] Memory required for data: 21285888
I0518 22:42:20.665025  8009 layer_factory.hpp:77] Creating layer cluster_shortpath
I0518 22:42:20.665045  8009 net.cpp:91] Creating Layer cluster_shortpath
I0518 22:42:20.665052  8009 net.cpp:425] cluster_shortpath <- pool2_pool2_0_split_0
I0518 22:42:20.665062  8009 net.cpp:399] cluster_shortpath -> cluster_shortpath
I0518 22:42:20.667402  8009 net.cpp:141] Setting up cluster_shortpath
I0518 22:42:20.667421  8009 net.cpp:148] Top shape: 256 250 (64000)
I0518 22:42:20.667428  8009 net.cpp:156] Memory required for data: 21541888
I0518 22:42:20.667443  8009 layer_factory.hpp:77] Creating layer cluster_cluster
I0518 22:42:20.667464  8009 net.cpp:91] Creating Layer cluster_cluster
I0518 22:42:20.667470  8009 net.cpp:425] cluster_cluster <- pool2_pool2_0_split_1
I0518 22:42:20.667479  8009 net.cpp:425] cluster_cluster <- label_mnist_1_split_0
I0518 22:42:20.667489  8009 net.cpp:399] cluster_cluster -> cluster_cluster
I0518 22:42:20.674381  8009 net.cpp:141] Setting up cluster_cluster
I0518 22:42:20.674412  8009 net.cpp:148] Top shape: 256 250 (64000)
I0518 22:42:20.674419  8009 net.cpp:156] Memory required for data: 21797888
I0518 22:42:20.674448  8009 layer_factory.hpp:77] Creating layer cluster
I0518 22:42:20.674460  8009 net.cpp:91] Creating Layer cluster
I0518 22:42:20.674470  8009 net.cpp:425] cluster <- cluster_cluster
I0518 22:42:20.674480  8009 net.cpp:425] cluster <- cluster_shortpath
I0518 22:42:20.674489  8009 net.cpp:399] cluster -> cluster
I0518 22:42:20.674525  8009 net.cpp:141] Setting up cluster
I0518 22:42:20.674538  8009 net.cpp:148] Top shape: 256 500 (128000)
I0518 22:42:20.674547  8009 net.cpp:156] Memory required for data: 22309888
I0518 22:42:20.674557  8009 layer_factory.hpp:77] Creating layer dropout
I0518 22:42:20.674577  8009 net.cpp:91] Creating Layer dropout
I0518 22:42:20.674587  8009 net.cpp:425] dropout <- cluster
I0518 22:42:20.674597  8009 net.cpp:386] dropout -> cluster (in-place)
I0518 22:42:20.674630  8009 net.cpp:141] Setting up dropout
I0518 22:42:20.674649  8009 net.cpp:148] Top shape: 256 500 (128000)
I0518 22:42:20.674655  8009 net.cpp:156] Memory required for data: 22821888
I0518 22:42:20.674662  8009 layer_factory.hpp:77] Creating layer relu1
I0518 22:42:20.674672  8009 net.cpp:91] Creating Layer relu1
I0518 22:42:20.674679  8009 net.cpp:425] relu1 <- cluster
I0518 22:42:20.674686  8009 net.cpp:386] relu1 -> cluster (in-place)
I0518 22:42:20.675088  8009 net.cpp:141] Setting up relu1
I0518 22:42:20.675106  8009 net.cpp:148] Top shape: 256 500 (128000)
I0518 22:42:20.675112  8009 net.cpp:156] Memory required for data: 23333888
I0518 22:42:20.675118  8009 layer_factory.hpp:77] Creating layer ip2
I0518 22:42:20.675130  8009 net.cpp:91] Creating Layer ip2
I0518 22:42:20.675137  8009 net.cpp:425] ip2 <- cluster
I0518 22:42:20.675148  8009 net.cpp:399] ip2 -> ip2
I0518 22:42:20.675839  8009 net.cpp:141] Setting up ip2
I0518 22:42:20.675858  8009 net.cpp:148] Top shape: 256 10 (2560)
I0518 22:42:20.675865  8009 net.cpp:156] Memory required for data: 23344128
I0518 22:42:20.675880  8009 layer_factory.hpp:77] Creating layer loss
I0518 22:42:20.675891  8009 net.cpp:91] Creating Layer loss
I0518 22:42:20.675899  8009 net.cpp:425] loss <- ip2
I0518 22:42:20.675906  8009 net.cpp:425] loss <- label_mnist_1_split_1
I0518 22:42:20.675917  8009 net.cpp:399] loss -> loss
I0518 22:42:20.675932  8009 layer_factory.hpp:77] Creating layer loss
…
I0518 22:42:20.677472  8009 net.cpp:313] The NetState phase (1) differed from the phase (0) specified by a rule in layer mnist
I0518 22:42:20.677490  8009 net.cpp:313] The NetState phase (1) differed from the phase (0) specified by a rule in layer cluster_cluster
I0518 22:42:20.677623  8009 net.cpp:49] Initializing net from parameters: 
name: "LeNet"
state {
  phase: TEST
}
layer {
  name: "mnist"
  type: "Data"
  top: "data"
  top: "label"
  include {
    phase: TEST
  }
  transform_param {
    scale: 0.00390625
  }
  data_param {
    source: "examples/mnist/mnist_test_lmdb"
    batch_size: 100
    backend: LMDB
  }
}
layer {
  name: "conv1"
  type: "Convolution"
  bottom: "data"
  top: "conv1"
  param {
    lr_mult: 1
  }
  param {
    lr_mult: 2
  }
  convolution_param {
    num_output: 20
    kernel_size: 5
    stride: 1
    weight_filler {
      type: "xavier"
    }
    bias_filler {
      type: "constant"
    }
  }
}
layer {
  name: "pool1"
  type: "Pooling"
  bottom: "conv1"
  top: "pool1"
  pooling_param {
    pool: MAX
    kernel_size: 2
    stride: 2
  }
}
layer {
  name: "conv2"
  type: "Convolution"
  bottom: "pool1"
  top: "conv2"
  param {
    lr_mult: 1
  }
  param {
    lr_mult: 2
  }
  convolution_param {
    num_output: 50
    kernel_size: 5
    stride: 1
    weight_filler {
      type: "xavier"
    }
    bias_filler {
      type: "constant"
    }
  }
}
layer {
  name: "pool2"
  type: "Pooling"
  bottom: "conv2"
  top: "pool2"
  pooling_param {
    pool: MAX
    kernel_size: 2
    stride: 2
  }
}
layer {
  name: "cluster_shortpath"
  type: "InnerProduct"
  bottom: "pool2"
  top: "cluster_shortpath"
  param {
    lr_mult: 1
  }
  param {
    lr_mult: 2
  }
  inner_product_param {
    num_output: 250
    weight_filler {
      type: "xavier"
    }
    bias_filler {
      type: "constant"
    }
  }
}
layer {
  name: "cluster_cluster"
  type: "Clustering"
  bottom: "pool2"
  top: "cluster_cluster"
  include {
    phase: TEST
  }
  clustering_param {
    k: 3
    total_class: 10
    num_output: 250
    lambda: 0.001
    branch: true
    across_class: true
    data_size: 10000
  }
}
layer {
  name: "cluster"
  type: "Concat"
  bottom: "cluster_cluster"
  bottom: "cluster_shortpath"
  top: "cluster"
}
layer {
  name: "dropout"
  type: "Dropout"
  bottom: "cluster"
  top: "cluster"
  dropout_param {
    dropout_ratio: 0.5
  }
}
layer {
  name: "relu1"
  type: "ReLU"
  bottom: "cluster"
  top: "cluster"
}
layer {
  name: "ip2"
  type: "InnerProduct"
  bottom: "cluster"
  top: "ip2"
  param {
    lr_mult: 1
  }
  param {
    lr_mult: 2
  }
  inner_product_param {
    num_output: 10
    weight_filler {
      type: "xavier"
    }
    bias_filler {
      type: "constant"
    }
  }
}
layer {
  name: "prob"
  type: "Softmax"
  bottom: "ip2"
  top: "prob"
  include {
    phase: TEST
  }
}
layer {
  name: "accuracy"
  type: "Accuracy"
  bottom: "prob"
  bottom: "label"
  top: "accuracy"
  include {
    phase: TEST
  }
}
layer {
  name: "loss"
  type: "SoftmaxWithLoss"
  bottom: "ip2"
  bottom: "label"
  top: "loss"
}
I0518 22:42:20.677727  8009 layer_factory.hpp:77] Creating layer mnist
I0518 22:42:20.677860  8009 net.cpp:91] Creating Layer mnist
I0518 22:42:20.677871  8009 net.cpp:399] mnist -> data
I0518 22:42:20.677886  8009 net.cpp:399] mnist -> label
I0518 22:42:20.678712  8016 db_lmdb.cpp:38] Opened lmdb examples/mnist/mnist_test_lmdb
I0518 22:42:20.678859  8009 data_layer.cpp:41] output data size: 100,1,28,28
I0518 22:42:20.680227  8009 net.cpp:141] Setting up mnist
I0518 22:42:20.680260  8009 net.cpp:148] Top shape: 100 1 28 28 (78400)
I0518 22:42:20.680271  8009 net.cpp:148] Top shape: 100 (100)
I0518 22:42:20.680279  8009 net.cpp:156] Memory required for data: 314000
I0518 22:42:20.680289  8009 layer_factory.hpp:77] Creating layer label_mnist_1_split
I0518 22:42:20.680306  8009 net.cpp:91] Creating Layer label_mnist_1_split
I0518 22:42:20.680315  8009 net.cpp:425] label_mnist_1_split <- label
I0518 22:42:20.680328  8009 net.cpp:399] label_mnist_1_split -> label_mnist_1_split_0
I0518 22:42:20.680344  8009 net.cpp:399] label_mnist_1_split -> label_mnist_1_split_1
I0518 22:42:20.680410  8009 net.cpp:141] Setting up label_mnist_1_split
I0518 22:42:20.680425  8009 net.cpp:148] Top shape: 100 (100)
I0518 22:42:20.680434  8009 net.cpp:148] Top shape: 100 (100)
I0518 22:42:20.680441  8009 net.cpp:156] Memory required for data: 314800
I0518 22:42:20.680449  8009 layer_factory.hpp:77] Creating layer conv1
I0518 22:42:20.680469  8009 net.cpp:91] Creating Layer conv1
I0518 22:42:20.680480  8009 net.cpp:425] conv1 <- data
I0518 22:42:20.680490  8009 net.cpp:399] conv1 -> conv1
I0518 22:42:20.682168  8009 net.cpp:141] Setting up conv1
I0518 22:42:20.682204  8009 net.cpp:148] Top shape: 100 20 24 24 (1152000)
I0518 22:42:20.682215  8009 net.cpp:156] Memory required for data: 4922800
I0518 22:42:20.682238  8009 layer_factory.hpp:77] Creating layer pool1
I0518 22:42:20.682258  8009 net.cpp:91] Creating Layer pool1
I0518 22:42:20.682268  8009 net.cpp:425] pool1 <- conv1
I0518 22:42:20.682281  8009 net.cpp:399] pool1 -> pool1
I0518 22:42:20.682348  8009 net.cpp:141] Setting up pool1
I0518 22:42:20.682364  8009 net.cpp:148] Top shape: 100 20 12 12 (288000)
I0518 22:42:20.682374  8009 net.cpp:156] Memory required for data: 6074800
I0518 22:42:20.682384  8009 layer_factory.hpp:77] Creating layer conv2
I0518 22:42:20.682405  8009 net.cpp:91] Creating Layer conv2
I0518 22:42:20.682416  8009 net.cpp:425] conv2 <- pool1
I0518 22:42:20.682430  8009 net.cpp:399] conv2 -> conv2
I0518 22:42:20.684262  8009 net.cpp:141] Setting up conv2
I0518 22:42:20.684293  8009 net.cpp:148] Top shape: 100 50 8 8 (320000)
I0518 22:42:20.684301  8009 net.cpp:156] Memory required for data: 7354800
I0518 22:42:20.684320  8009 layer_factory.hpp:77] Creating layer pool2
I0518 22:42:20.684336  8009 net.cpp:91] Creating Layer pool2
I0518 22:42:20.684345  8009 net.cpp:425] pool2 <- conv2
I0518 22:42:20.684357  8009 net.cpp:399] pool2 -> pool2
I0518 22:42:20.684417  8009 net.cpp:141] Setting up pool2
I0518 22:42:20.684432  8009 net.cpp:148] Top shape: 100 50 4 4 (80000)
I0518 22:42:20.684440  8009 net.cpp:156] Memory required for data: 7674800
I0518 22:42:20.684448  8009 layer_factory.hpp:77] Creating layer pool2_pool2_0_split
I0518 22:42:20.684458  8009 net.cpp:91] Creating Layer pool2_pool2_0_split
I0518 22:42:20.684463  8009 net.cpp:425] pool2_pool2_0_split <- pool2
I0518 22:42:20.684473  8009 net.cpp:399] pool2_pool2_0_split -> pool2_pool2_0_split_0
I0518 22:42:20.684485  8009 net.cpp:399] pool2_pool2_0_split -> pool2_pool2_0_split_1
I0518 22:42:20.684536  8009 net.cpp:141] Setting up pool2_pool2_0_split
I0518 22:42:20.684551  8009 net.cpp:148] Top shape: 100 50 4 4 (80000)
I0518 22:42:20.684561  8009 net.cpp:148] Top shape: 100 50 4 4 (80000)
I0518 22:42:20.684567  8009 net.cpp:156] Memory required for data: 8314800
I0518 22:42:20.684574  8009 layer_factory.hpp:77] Creating layer cluster_shortpath
I0518 22:42:20.684587  8009 net.cpp:91] Creating Layer cluster_shortpath
I0518 22:42:20.684593  8009 net.cpp:425] cluster_shortpath <- pool2_pool2_0_split_0
I0518 22:42:20.684604  8009 net.cpp:399] cluster_shortpath -> cluster_shortpath
I0518 22:42:20.687386  8009 net.cpp:141] Setting up cluster_shortpath
I0518 22:42:20.687425  8009 net.cpp:148] Top shape: 100 250 (25000)
I0518 22:42:20.687434  8009 net.cpp:156] Memory required for data: 8414800
I0518 22:42:20.687456  8009 layer_factory.hpp:77] Creating layer cluster_cluster
I0518 22:42:20.687477  8009 net.cpp:91] Creating Layer cluster_cluster
I0518 22:42:20.687486  8009 net.cpp:425] cluster_cluster <- pool2_pool2_0_split_1
I0518 22:42:20.687500  8009 net.cpp:399] cluster_cluster -> cluster_cluster
I0518 22:42:20.695327  8009 net.cpp:141] Setting up cluster_cluster
I0518 22:42:20.695369  8009 net.cpp:148] Top shape: 100 250 (25000)
I0518 22:42:20.695377  8009 net.cpp:156] Memory required for data: 8514800
I0518 22:42:20.695410  8009 layer_factory.hpp:77] Creating layer cluster
I0518 22:42:20.695425  8009 net.cpp:91] Creating Layer cluster
I0518 22:42:20.695433  8009 net.cpp:425] cluster <- cluster_cluster
I0518 22:42:20.695444  8009 net.cpp:425] cluster <- cluster_shortpath
I0518 22:42:20.695454  8009 net.cpp:399] cluster -> cluster
I0518 22:42:20.695493  8009 net.cpp:141] Setting up cluster
I0518 22:42:20.695508  8009 net.cpp:148] Top shape: 100 500 (50000)
I0518 22:42:20.695513  8009 net.cpp:156] Memory required for data: 8714800
I0518 22:42:20.695520  8009 layer_factory.hpp:77] Creating layer dropout
I0518 22:42:20.695531  8009 net.cpp:91] Creating Layer dropout
I0518 22:42:20.695538  8009 net.cpp:425] dropout <- cluster
I0518 22:42:20.695547  8009 net.cpp:386] dropout -> cluster (in-place)
I0518 22:42:20.695582  8009 net.cpp:141] Setting up dropout
I0518 22:42:20.695595  8009 net.cpp:148] Top shape: 100 500 (50000)
I0518 22:42:20.695602  8009 net.cpp:156] Memory required for data: 8914800
I0518 22:42:20.695608  8009 layer_factory.hpp:77] Creating layer relu1
I0518 22:42:20.695618  8009 net.cpp:91] Creating Layer relu1
I0518 22:42:20.695624  8009 net.cpp:425] relu1 <- cluster
I0518 22:42:20.695633  8009 net.cpp:386] relu1 -> cluster (in-place)
I0518 22:42:20.695899  8009 net.cpp:141] Setting up relu1
I0518 22:42:20.695914  8009 net.cpp:148] Top shape: 100 500 (50000)
I0518 22:42:20.695920  8009 net.cpp:156] Memory required for data: 9114800
I0518 22:42:20.695927  8009 layer_factory.hpp:77] Creating layer ip2
I0518 22:42:20.695940  8009 net.cpp:91] Creating Layer ip2
I0518 22:42:20.695947  8009 net.cpp:425] ip2 <- cluster
I0518 22:42:20.695956  8009 net.cpp:399] ip2 -> ip2
I0518 22:42:20.696159  8009 net.cpp:141] Setting up ip2
I0518 22:42:20.696173  8009 net.cpp:148] Top shape: 100 10 (1000)
I0518 22:42:20.696179  8009 net.cpp:156] Memory required for data: 9118800
I0518 22:42:20.696194  8009 layer_factory.hpp:77] Creating layer ip2_ip2_0_split
I0518 22:42:20.696205  8009 net.cpp:91] Creating Layer ip2_ip2_0_split
I0518 22:42:20.696211  8009 net.cpp:425] ip2_ip2_0_split <- ip2
I0518 22:42:20.696220  8009 net.cpp:399] ip2_ip2_0_split -> ip2_ip2_0_split_0
I0518 22:42:20.696233  8009 net.cpp:399] ip2_ip2_0_split -> ip2_ip2_0_split_1
I0518 22:42:20.696287  8009 net.cpp:141] Setting up ip2_ip2_0_split
I0518 22:42:20.696301  8009 net.cpp:148] Top shape: 100 10 (1000)
I0518 22:42:20.696310  8009 net.cpp:148] Top shape: 100 10 (1000)
I0518 22:42:20.696316  8009 net.cpp:156] Memory required for data: 9126800
I0518 22:42:20.696322  8009 layer_factory.hpp:77] Creating layer prob
I0518 22:42:20.696336  8009 net.cpp:91] Creating Layer prob
I0518 22:42:20.696342  8009 net.cpp:425] prob <- ip2_ip2_0_split_0
I0518 22:42:20.696352  8009 net.cpp:399] prob -> prob
I0518 22:42:20.696833  8009 net.cpp:141] Setting up prob
I0518 22:42:20.696851  8009 net.cpp:148] Top shape: 100 10 (1000)
I0518 22:42:20.696857  8009 net.cpp:156] Memory required for data: 9130800
I0518 22:42:20.696864  8009 layer_factory.hpp:77] Creating layer accuracy
I0518 22:42:20.696876  8009 net.cpp:91] Creating Layer accuracy
I0518 22:42:20.696882  8009 net.cpp:425] accuracy <- prob
I0518 22:42:20.696890  8009 net.cpp:425] accuracy <- label_mnist_1_split_0
I0518 22:42:20.696904  8009 net.cpp:399] accuracy -> accuracy
…
